…
        "features.extend([nn.Linear(num_features, len(class_names))])  # Add our layer with 4 outputs\n",
        "vgg16.classifier = nn.Sequential(*features)  # Replace the model classifier\n",
        "\n",
        "vgg16.load_state_dict(torch.load(\"/content/gdrive/MyDrive/models/VGG16_v2-COVID-19_Dataset.pt\"))\n",
        "print(vgg16)\n",
        "print(\"Loaded!\")"
      ],
      "execution_count": 11,
      "outputs": [
        {
          "output_type": "stream",
          "name": "stdout",
          "text": [
            "Loading pretrained model..\n",
            "1000\n",
            "VGG(\n",
            "  (features): Sequential(\n",
            "    (0): Conv2d(3, 64, kernel_size=(3, 3), stride=(1, 1), padding=(1, 1))\n",
            "    (1): BatchNorm2d(64, eps=1e-05, momentum=0.1, affine=True, track_running_stats=True)\n",
            "    (2): ReLU(inplace=True)\n",
            "    (3): Conv2d(64, 64, kernel_size=(3, 3), stride=(1, 1), padding=(1, 1))\n",
            "    (4): BatchNorm2d(64, eps=1e-05, momentum=0.1, affine=True, track_running_stats=True)\n",
            "    (5): ReLU(inplace=True)\n",
            "    (6): MaxPool2d(kernel_size=2, stride=2, padding=0, dilation=1, ceil_mode=False)\n",
            "    (7): Conv2d(64, 128, kernel_size=(3, 3), stride=(1, 1), padding=(1, 1))\n",
            "    (8): BatchNorm2d(128, eps=1e-05, momentum=0.1, affine=True, track_running_stats=True)\n",
            "    (9): ReLU(inplace=True)\n",
            "    (10): Conv2d(128, 128, kernel_size=(3, 3), stride=(1, 1), padding=(1, 1))\n",
            "    (11): BatchNorm2d(128, eps=1e-05, momentum=0.1, affine=True, track_running_stats=True)\n",
            "    (12): ReLU(inplace=True)\n",
            "    (13): MaxPool2d(kernel_size=2, stride=2, padding=0, dilation=1, ceil_mode=False)\n",
            "    (14): Conv2d(128, 256, kernel_size=(3, 3), stride=(1, 1), padding=(1, 1))\n",
            "    (15): BatchNorm2d(256, eps=1e-05, momentum=0.1, affine=True, track_running_stats=True)\n",
            "    (16): ReLU(inplace=True)\n",
            "    (17): Conv2d(256, 256, kernel_size=(3, 3), stride=(1, 1), padding=(1, 1))\n",
            "    (18): BatchNorm2d(256, eps=1e-05, momentum=0.1, affine=True, track_running_stats=True)\n",
            "    (19): ReLU(inplace=True)\n",
            "    (20): Conv2d(256, 256, kernel_size=(3, 3), stride=(1, 1), padding=(1, 1))\n",
            "    (21): BatchNorm2d(256, eps=1e-05, momentum=0.1, affine=True, track_running_stats=True)\n",
            "    (22): ReLU(inplace=True)\n",
            "    (23): MaxPool2d(kernel_size=2, stride=2, padding=0, dilation=1, ceil_mode=False)\n",
            "    (24): Conv2d(256, 512, kernel_size=(3, 3), stride=(1, 1), padding=(1, 1))\n",
            "    (25): BatchNorm2d(512, eps=1e-05, momentum=0.1, affine=True, track_running_stats=True)\n",
            "    (26): ReLU(inplace=True)\n",
            "    (27): Conv2d(512, 512, kernel_size=(3, 3), stride=(1, 1), padding=(1, 1))\n",
            "    (28): BatchNorm2d(512, eps=1e-05, momentum=0.1, affine=True, track_running_stats=True)\n",
            "    (29): ReLU(inplace=True)\n",
            "    (30): Conv2d(512, 512, kernel_size=(3, 3), stride=(1, 1), padding=(1, 1))\n",
            "    (31): BatchNorm2d(512, eps=1e-05, momentum=0.1, affine=True, track_running_stats=True)\n",
            "    (32): ReLU(inplace=True)\n",
            "    (33): MaxPool2d(kernel_size=2, stride=2, padding=0, dilation=1, ceil_mode=False)\n",
            "    (34): Conv2d(512, 512, kernel_size=(3, 3), stride=(1, 1), padding=(1, 1))\n",
            "    (35): BatchNorm2d(512, eps=1e-05, momentum=0.1, affine=True, track_running_stats=True)\n",
            "    (36): ReLU(inplace=True)\n",
            "    (37): Conv2d(512, 512, kernel_size=(3, 3), stride=(1, 1), padding=(1, 1))\n",
            "    (38): BatchNorm2d(512, eps=1e-05, momentum=0.1, affine=True, track_running_stats=True)\n",
            "    (39): ReLU(inplace=True)\n",
            "    (40): Conv2d(512, 512, kernel_size=(3, 3), stride=(1, 1), padding=(1, 1))\n",
            "    (41): BatchNorm2d(512, eps=1e-05, momentum=0.1, affine=True, track_running_stats=True)\n",
            "    (42): ReLU(inplace=True)\n",
            "    (43): MaxPool2d(kernel_size=2, stride=2, padding=0, dilation=1, ceil_mode=False)\n",
            "  )\n",
            "  (avgpool): AdaptiveAvgPool2d(output_size=(7, 7))\n",
            "  (classifier): Sequential(\n",
            "    (0): Linear(in_features=25088, out_features=4096, bias=True)\n",
            "    (1): ReLU(inplace=True)\n",
            "    (2): Dropout(p=0.5, inplace=False)\n",
            "    (3): Linear(in_features=4096, out_features=4096, bias=True)\n",
            "    (4): ReLU(inplace=True)\n",
            "    (5): Dropout(p=0.5, inplace=False)\n",
            "    (6): Linear(in_features=4096, out_features=2, bias=True)\n",
            "  )\n",
            ")\n",
            "Loaded!\n"
          ]
        }
      ]
    },
    {
      "cell_type": "code",
      "metadata": {
        "_cell_guid": "df23921b-f26e-496a-9a71-cdf2a9daa34e",
        "id": "HTJWo25nwhef",
        "_uuid": "45d872d00fcfe93de8938b8741b4526af971c62b",
        "collapsed": true,
        "trusted": false
…
